final_weights_600.pth (torch, 3436 bytes, 6 tensors)

FC.0.weight f4 [12, 4]
00000000: 67e7 1f40 9051 943f 20a0 4dbe 6b9e 213f
00000010: 0820 87bd ddb7 3b3f 1327 cd3f 0ae3 843e
00000020: 18f7 73bf 9118 973e 3016 503f 9885 1abe
00000030: 2356 bd3f 7bf9 1d3f cf56 8640 fe62 e13e
00000040: adda 1cbf 76f1 bcbe de49 9bc0 80a8 5ebf
00000050: 57b5 843f ad32 94bf 11bc 66bf 5675 36bf
00000060: b00b 5a3f 4170 e9be 07fd e4bf ed1f 40bf
00000070: aaaf 4c3e 2371 31bf d1c1 96c0 1d51 b5bf
00000080: 62ab 113f f431 9b3e bd29 b040 e4c6 8f3f
00000090: 04c1 003f 5210 dbbd 4dfd 34bf 6db2 073f
000000a0: ab46 533d fcff 0cbf 7fa1 85bf cc7c 7cbe
000000b0: 1771 a63e e53c 1a3f 4928 83be 361a 673e
2.4984987 1.1587391 -0.20080614 0.6313235 -0.06597906 0.7332743 1.602755 0.25954467
-0.9529891 0.2951093 0.81283855 -0.15090024 1.4791912 0.617088 4.1980968 0.44020838
-0.6127117 -0.3690297 -4.852767 -0.8697586 1.036784 -1.1577965 -0.90130717 -0.7127279
0.85174084 -0.45593455 -1.7889718 -0.75048715 0.19988886 -0.6931326 -4.711159 -1.4165379
0.56902134 0.3031155 5.505095 1.1232572 0.5029452 -0.10696472 -0.70699006 0.5300663
0.051581066 -0.550781 -1.043991 -0.24656981 0.32508156 0.6024917 -0.25616673 0.22568592

FC.0.bias f4 [12]
00000000: a4b8 babe b5d8 e23f 9135 2240 46d3 e8be
00000010: 02fb b63e 125f b53f aed5 b83f 0c82 abbf
00000020: 9016 d03d 70dc dd3f 73e9 f63f ca1e ed3f
-0.36468995 1.7722384 2.5345194 -0.4547369 0.3573838 1.4169638 1.444021 -1.3399062
0.101605535 1.7332897 1.9289993 1.8525021

FC.2.weight f4 [8, 12]
00000000: 821b 2bbf 2c2d a13e 8dd9 6bbc ce25 2bbf
00000010: dac2 423e 5afb babe 9ee6 0bbf 1236 42be
00000020: fff3 7bbd 0fa4 d4be e9f9 83bd 980a 11bf
00000030: ec80 ac3f d142 13bf 64ef 023f 063b f5bd
00000040: 42ad 0840 8c53 203f 61fb f13f b7a2 fc3f
00000050: 8edf 6ac0 dcdf 18bf 9d07 8f3f 52e5 b8be
00000060: 5b17 7ebf d443 7a3f b11c 6e3e bfb4 ebbf
00000070: 0085 8abe 4619 2d3f 212f c33e da32 93bf
00000080: c00b 11c0 2688 8b3f 604c 4dbe 01d7 9d3f
00000090: 6d47 7ebf 7243 263f efdb 623f 78bf 21bf
000000a0: 707c 3a3f 7c66 91bf 3516 86c0 de8b e2bf
000000b0: 377f 0f40 b70e 893e e3be 00bf 8b90 0bbf
000000c0: 0ddd 84bf ab35 f23f 4115 043f 7a8a 89bf
000000d0: a3b5 93bf 4f46 aa3f e239 df3f e81d bdbf
000000e0: 43af 0fc0 159c d73f 0419 953f 518d af3f
000000f0: f8cc 94bf b85b b13f 4977 ba3f 0766 a8bf
00000100: 67fd 02c0 46a7 be3f ccec d93f 0405 1bc0
00000110: 7c90 87bf 62e4 fb3f 2f58 8d3f f7b3 823f
00000120: ab22 03c0 4f90 923f d3a6 a03f 0676 88bf
00000130: 5d1d a8bf 9548 0840 236b dc3f c11f 19c0
00000140: ef75 05c0 8b55 d93f ea71 a13f f38a 1440
00000150: fd8e 09bd 95d9 883c 971c 9c3c ae34 aa3e
00000160: 768b ed3e 83e2 b0bf 1707 9cbf f451 163d
00000170: 898e 28bf f2ed 803e 8d33 433e cebf babe
-0.6683885 0.31479776 -0.01439513 -0.6685456 0.19019642 -0.3651989 -0.5464877 -0.18965939
-0.06151199 -0.41531417 -0.06444151 -0.5665679 1.3476844 -0.5752383 0.5114653 -0.119741485
2.1355748 0.6262748 1.890484 1.9737157 -3.6698947 -0.5971658 1.1174198 -0.36112458
-0.9925439 0.9775975 0.23253132 -1.8414534 -0.27054596 0.6761669 0.38121894 -1.1499894
-2.2663422 1.0900924 -0.20048666 1.2331239 -0.9932774 0.64946663 0.8861684 -0.63182783
0.72846127 -1.1359401 -4.190211 -1.7698934 2.2421396 0.2676904 -0.5029127 -0.5451743
-1.0379959 1.8922628 0.5159493 -1.0745385 -1.1539806 1.3302706 1.743954 -1.4774752
-2.2450721 1.6844507 1.1648259 1.3715001 -1.1625051 1.3856115 1.4567653 -1.3156136
-2.0467165 1.4894798 1.702539 -2.4221811 -1.0590968 1.9679072 1.1042536 1.0211171
-2.048991 1.145029 1.2550911 -1.0661018 -1.3133961 2.12943 1.7220196 -2.392563
-2.085323 1.6979231 1.2612889 2.3209808 -0.03358363 0.016705314 0.019056601 0.33243316
0.46395463 -1.3819126 -1.2189664 0.03669925 -0.6584249 0.25181538 0.19062634 -0.3647446

FC.2.bias f4 [8]
00000000: 0bfd babe a046 1c3f 0a8f 1c3e 52fd 5f3f
00000010: 24b1 bb3f 47a5 9f3f c1a1 793f 3331 86bd
-0.3652118 0.61045265 0.1528894 0.8749591 1.4663434 1.2472314 0.9751244 -0.06552353

FC.4.weight f4 [2, 8]
00000000: e480 2f3f a5b9 a8bf ff03 2840 ddde 8bc0
00000010: 56b8 d23f 6ea7 963f a636 0c40 b227 92bd
00000020: cdf7 b9be 2960 01c0 1b25 143f af49 02c0
00000030: fc1f e13f 4b61 0c40 df37 f93f f103 99bf
0.68556046 -1.3181654 2.625244 -4.370955 1.6462505 1.1769845 2.1908355 -0.071364775
-0.3632187 -2.0214942 0.5786912 -2.0357473 1.7587886 2.1934383 1.9470176 -1.1954328

FC.4.bias f4 [2]
00000000: bbdb 2e3f b19f e33f
0.6830403 1.7783109
